model/emotion_detection_model_state.pth (torch, 924015 bytes, 62 tensors)

input.0.weight f4 [64, 1, 3, 3]
0	0x3e7f6711	0.2494166
1	0xbb5eaf23	-0.0033978901
2	0x3e62f67d	0.2216434
3	0x3e49da08	0.19712079
4	0xbe965284	-0.2935983
5	0x3cb6667b	0.022265663
6	0xbd14b7c4	-0.036308065
7	0x3d1b71e5	0.037950415
8	0xbe692c32	-0.22770765
9	0xbd781ffd	-0.06057738
10	0x3d2541df	0.040346023
11	0x3d1c51e0	0.03816402
12	0xbe27d562	-0.16389993
13	0x3e06d949	0.13168825
14	0xbe38bd12	-0.18040875
15	0xbe3a665f	-0.18203114
16	0x3e2abf87	0.16674624
17	0x3e66f56c	0.22554559
18	0xbe27d1b6	-0.16388592
19	0xbe4a0169	-0.197271
20	0x3d33ef6c	0.043929502
21	0x3e875487	0.26431677
22	0xbe64eeeb	-0.22356765
23	0xbe060b93	-0.13090353
24	0x3ebb06a8	0.36528516
25	0xbe7ea682	-0.24868205
26	0x3e8e5df9	0.2780607
27	0xbe331686	-0.17489061
28	0x3ea590e0	0.32337093
29	0xbda8dcd1	-0.082452424
30	0x3c406fd9	0.011745417
31	0x3e9da72f	0.30791613
32	0xbe2a6118	-0.16638601
33	0x3dda8a0b	0.10670861
34	0xbe492397	-0.19642483
35	0xbe75c0f9	-0.23999394
36	0xbded1b45	-0.11577467
37	0xbb9443e1	-0.0045246934
38	0xbe9f440b	-0.311066
39	0x3d1040ec	0.035218164
40	0x3e79cd25	0.24394663
41	0x3c4d1f54	0.012519676
42	0x3d98f796	0.07469098
43	0x3e521ca3	0.20518737
44	0x3e4e6bba	0.20158282
45	0xbea55f4e	-0.32299274
46	0xbbbd55c6	-0.0057780473
47	0x3e88a5fe	0.26689142
48	0x3e6087a2	0.2192674
49	0xbe335d7b	-0.17516129
50	0xbdacf4c2	-0.08445121
51	0xbe969af6	-0.294151
52	0x3e32ff19	0.17480125
53	0x3e664009	0.22485365
54	0xbe7fcb28	-0.24979842
55	0xbdee8470	-0.11646354
56	0xbe5bb603	-0.2145615
57	0x3e0435f9	0.12911214
58	0x3e6d98b8	0.23202789
59	0x3e6f86d0	0.2339127
60	0xbd8bf849	-0.06834466
61	0x3dd7dd54	0.10540262
62	0xbd9c78d7	-0.07640236
63	0x3e7e4bf7	0.24833666
64	0x3e361630	0.17781901
65	0x3ea9054d	0.33011857
66	0xbe1466f8	-0.14492404
67	0x3e8d87a9	0.27642563
68	0xbe8133d8	-0.25234866
69	0xbe8fe8a0	-0.28107166
70	0xbe7bb743	-0.24581628
71	0xbdea10ea	-0.11429007
72	0xbe0d2832	-0.13784865
73	0xbda58174	-0.08081332
74	0x3e877d06	0.26462573
75	0x3ced3549	0.028956072
76	0x3d03fd96	0.03222426
77	0x3dd32ccc	0.10311279
78	0xbe90932f	-0.28237292
79	0xbd9a6857	-0.075394325
80	0x3e0bb149	0.13641848
81	0xbcb392d3	-0.021920597
82	0x3e2caa54	0.1686185
83	0x3e064cb4	0.13115197
84	0xbe86f7de	-0.26360983
85	0x3e521fb4	0.20519906
86	0xbe81c9e5	-0.25349346
87	0x3d7a045d	0.061039317
88	0xbe904638	-0.28178573
89	0x3e433d1d	0.19066282
90	0xbdf56190	-0.11981499
91	0x3e96503b	0.29358086
92	0xbe80ce86	-0.25157565
93	0xbdde4e55	-0.108547844
94	0x3d6f93f8	0.058490723
95	0x3b9f491f	0.0048610116
96	0xbe161cfb	-0.14659493
97	0x3e24cbe7	0.16093408
98	0x3e2257cb	0.15853803
99	0x3e99ba3c	0.30024898
100	0xbeae6fb7	-0.34069607
101	0xbe956a3d	-0.29182616
102	0xbe969d60	-0.29416943
103	0x3e4e1a06	0.20127115
104	0x3e881c40	0.26584053
105	0x3dd53869	0.1041115
106	0xbe1fd12e	-0.1560714
107	0x3e83409b	0.25635228
108	0xbe351531	-0.17683865
109	0xbe42cd36	-0.19023594
110	0xbea098ac	-0.3136648
111	0x3d453c2c	0.048153087
112	0xbe0c4c87	-0.13701068
113	0x3d553233	0.052049827
114	0x3e2ce26b	0.16883247
115	0xbe5852f2	-0.21125391
116	0x3e93ef90	0.2889371
117	0xbe94c694	-0.29057753
118	0x3e61745a	0.22017041
119	0xbe93c075	-0.2885777
120	0x3e15f62a	0.14644685
121	0xbe349164	-0.17633587
122	0x3d665f6e	0.056243353
123	0xba874c4b	-0.001032242
124	0x3e5b343a	0.21406642
125	0x3ddec261	0.108769186
126	0x3e4a0670	0.19729018
127	0x3e54cd00	0.20781326
128	0xbe54b42f	-0.2077186
129	0xbe84b84e	-0.25921863
130	0x3e30ec2e	0.17277595
131	0xbe7643b1	-0.2404926
132	0x3d8c4d5c	0.06850693
133	0xbe8c1cb1	-0.2736564
134	0x3ea9ab03	0.33138284
135	0x3e968c96	0.29404134
136	0xbe1e57d5	-0.15463193
137	0xbe2c00be	-0.16797158
138	0xbe8f79b9	-0.28022555
139	0x3e8b7767	0.27239534
140	0xbe33644f	-0.17518733
141	0x3dbd7aeb	0.0925196
142	0x3d95956e	0.07303892
143	0x3d1a742e	0.037708454
144	0x3c1235e5	0.008923982
145	0x3e967888	0.29388833
146	0xbc846ddc	-0.016165666
147	0xbe6bb8fe	-0.23019788
148	0x3d4c2be2	0.049846537
149	0xbc7f8a3d	-0.015596923
150	0x3e33ab15	0.17545731
151	0xbe052321	-0.13001682
152	0xbe11e84f	-0.14248775
153	0xbe6978a1	-0.22799923
154	0xbe08e0d7	-0.1336702
155	0x3e2ea1bb	0.17053883
156	0x3df26414	0.11835495
157	0x3b8e6869	0.0043459428
158	0x3e554171	0.20825745
159	0xbe6ec758	-0.23318231
160	0xbe42ab53	-0.19010668
161	0x3e27d77b	0.16390793
162	0x3e44c5c9	0.19216074
163	0xbe94ab23	-0.29036817
164	0x3de43ceb	0.11144432
165	0x3e476858	0.19473398
166	0xbd6a8603	-0.05725671
167	0x3e266d01	0.16252519
168	0xbdf8bae0	-0.121450186
169	0xbe603749	-0.2189609
170	0x3cef3463	0.029199785
171	0x3cc8584a	0.024456162
172	0x3d3ae98f	0.045632895
173	0xbe8c626e	-0.27418846
174	0xbe6e5ce3	-0.23277621
175	0xbe456241	-0.19275762
176	0x3e738d1f	0.23784302
177	0x3e5309bc	0.20609182
178	0x3d3886f1	0.045050565
179	0x3dc20cef	0.09475123
180	0x3e272530	0.1632278
181	0xbe4e0b46	-0.20121488
182	0xbd613858	-0.054985374
183	0xbd1a283b	-0.037636023
184	0xbe438bb6	-0.19096264
185	0xbe24cb43	-0.16093163
186	0xbe90ca7d	-0.28279486
187	0x3e5acaad	0.21366377
188	0xbb056769	-0.0020355827
189	0xbd801759	-0.06254453
190	0x3d834d5c	0.064112395
191	0xbd90910e	-0.07058917
192	0x3e6e7846	0.23288068
193	0xbe356283	-0.1771336
194	0x3db4071f	0.08790421
195	0xbe94fbec	-0.2909845
196	0x3e9db7b4	0.30804217
197	0xbe0262a5	-0.12732942
198	0xbe707fc0	-0.23486233
199	0xbe116f2d	-0.14202566
200	0x3e60c15d	0.21948762
201	0x3df9e8d6	0.12202613
202	0x3b77725d	0.0037757375
203	0xbe05b34e	-0.1305668
204	0x3eb5d59f	0.35514542
205	0x3db58897	0.08863943
206	0xbe93dbca	-0.28878623
207	0x3e2c8e87	0.16851245
208	0x3e1fccfc	0.15605539
209	0xbdaf37fe	-0.085556015
210	0xbca31f5c	-0.019912414
211	0x3e93237c	0.2873801
212	0xbcf43189	-0.029808776
213	0xbe414c3e	-0.1887674
214	0xbe5f90f2	-0.21832636
215	0xbd99628c	-0.074894994
216	0x3e5ab613	0.21358518
217	0x3e6c8411	0.23097254
218	0xbe1144a1	-0.14186336
219	0xbd170626	-0.036871098
220	0xbd912178	-0.07086462
221	0xbe23e18b	-0.16004007
222	0x3dbda19d	0.09259341
223	0x3d50d649	0.05098561
224	0xbe040131	-0.1289108
225	0x3e295456	0.16536078
226	0x3de85a26	0.113453194
227	0x3e8c3e5e	0.27391332
228	0xbd6cda96	-0.057825647
229	0x3e101a4c	0.14072531
230	0xbd7a3b6a	-0.061091818
231	0x3e6e9ecd	0.23302765
232	0x3ea1f9bd	0.31635848
233	0xbccbc6a7	-0.024874998
234	0xbdd389bf	-0.10329007
235	0x3e7e1f29	0.24816574
236	0x3e30ee5a	0.17278424
237	0xbd8be035	-0.068298735
238	0x3e2967d4	0.16543514
239	0xbe3eab5e	-0.18620059
240	0xbe69ba68	-0.22825015
241	0x3d0e703c	0.034775004
242	0xbbffa406	-0.0078015355
243	0xbe574c0f	-0.21025108
244	0xbd9ce353	-0.07660546
245	0x3dc527f2	0.096267596
246	0x3d8ea3be	0.06964825
247	0xbd16c87c	-0.03681229
248	0xbe645cf5	-0.22301085
249	0x3dea5147	0.11441284
250	0xbe6500a9	-0.22363533
251	0xbe1c0ff0	-0.15240455
252	0xbe470b31	-0.19437863
253	0x3c8ca73a	0.017169584
254	0xbe2e117c	-0.16998857
255	0x3ea6d4aa	0.32584125

input.0.bias f4 [64]
0	0x381e68d7	3.7767775e-05
1	0x3812ebdd	3.5028777e-05
2	0x3780e2b2	1.5364352e-05
3	0x36abd781	5.121285e-06
4	0x3731119b	1.0554121e-05
5	0xb7a474d1	-1.960472e-05
6	0xb57ab149	-9.339024e-07
7	0xb891fd5a	-6.961329e-05
8	0x3818924d	3.6375877e-05
9	0xb7be10a1	-2.2657508e-05
10	0x387755fa	5.896946e-05
11	0x37db8f2d	2.6173506e-05
12	0x36079afb	2.0206778e-06
13	0x380c0d81	3.3391178e-05
14	0xb859a193	-5.188731e-05
15	0xb60ebd38	-2.1269789e-06
16	0xb711eeb3	-8.69825e-06
17	0xb8192042	-3.6508085e-05
18	0x377b5586	1.4980678e-05
19	0xb7e68f65	-2.748491e-05
20	0x370ea19b	8.501486e-06
21	0x38452e72	4.7011716e-05
22	0x381befe1	3.7178284e-05
23	0x36608c1f	3.3460162e-06
24	0x35eb28a0	1.7520688e-06
25	0x35f95ded	1.8579282e-06
26	0x37904263	1.7197051e-05
27	0xb62b4391	-2.5520314e-06
28	0x36b4b398	5.3853255e-06
29	0xb6958a42	-4.4566414e-06
30	0xb6b2ab7d	-5.3247772e-06
31	0x36924555	4.3592104e-06
32	0xb84e6987	-4.9212507e-05
33	0xb7bb87ce	-2.2355376e-05
34	0xb83c7cec	-4.4939035e-05
35	0xb60e24b2	-2.1181008e-06
36	0xb8b8018c	-8.774092e-05
37	0xb7e87502	-2.7711041e-05
38	0x37d24a14	2.5068446e-05
39	0x377f7241	1.5225786e-05
40	0x37852d05	1.58758e-05
41	0xb7852dc0	-1.587614e-05
42	0xb8b14f84	-8.454829e-05
43	0x381de4bb	3.764474e-05
44	0x384f595d	4.9435872e-05
45	0xb8ac360c	-8.211666e-05
46	0xb7088edb	-8.139493e-06
47	0xb6a03b92	-4.7753065e-06
48	0xb829f627	-4.0521987e-05
49	0x380b801f	3.3259505e-05
50	0x38aab20a	8.139394e-05
51	0xb60e8356	-2.1236096e-06
52	0x359735ff	1.1266092e-06
53	0x390712ad	0.0001288156
54	0xb7090b66	-8.16849e-06
55	0xb8fa9f33	-0.00011950582
56	0x36619592	3.3614674e-06
57	0x371ba5dc	9.277337e-06
58	0x371c85f6	9.329515e-06
59	0x36200a6f	2.384793e-06
60	0x3806fb17	3.2181935e-05
61	0x383323f6	4.2710417e-05
62	0x36b003ba	5.2456426e-06
63	0xb845842b	-4.709155e-05

input.1.weight f4 [64]
0	0x3f649f72	0.89305794
1	0x3f743dcf	0.9540681
2	0x3f778e03	0.9670107
3	0x3f6f123c	0.933872
4	0x3f5f7894	0.8729336
5	0x3f7e463f	0.9932594
6	0x3f700946	0.9376415
7	0x3f7f1c4b	0.99652547
8	0x3f808225	1.0039717
9	0x3f6c344a	0.92267287
10	0x3f795bbe	0.9740561
11	0x3f7b57bb	0.9818074
12	0x3f586db4	0.84542394
13	0x3f7611ee	0.9612111
14	0x3f84adc9	1.0365535
15	0x3f81ed04	1.0150456
16	0x3f8435f9	1.0328971
17	0x3f684bed	0.90740854
18	0x3f861ccb	1.0477537
19	0x3f67be56	0.90524805
20	0x3f620c1b	0.8829972
21	0x3f7b9c40	0.98285294
22	0x3f808255	1.0039774
23	0x3f7f6c9b	0.99775094
24	0x3f606c36	0.87665117
25	0x3f56019b	0.835962
26	0x3f7bc5eb	0.98348874
27	0x3f55e683	0.8355486
28	0x3f72661d	0.9468706
29	0x3f563455	0.836736
30	0x3f5e1026	0.8674339
31	0x3f75e983	0.96059436
32	0x3f7b9337	0.9827151
33	0x3f66e030	0.9018583
34	0x3f8c2220	1.0947914
35	0x3f4c9078	0.7990794
36	0x3f7ac1b4	0.9795182
37	0x3f7e745a	0.9939629
38	0x3f832026	1.0244186
39	0x3f7b735a	0.9822289
40	0x3f9168e6	1.1360137
41	0x3f75c518	0.96003866
42	0x3f87189b	1.0554384
43	0x3f84e8f4	1.0383592
44	0x3f81448a	1.0099041
45	0x3f7f4e94	0.99729276
46	0x3f6c2358	0.9224143
47	0x3f7b33a6	0.98125684
48	0x3f82b2bb	1.0210794
49	0x3f8a095c	1.0784106
50	0x3f807e0b	1.0038465
51	0x3f5b50b6	0.8567003
52	0x3f5a4b4e	0.85271156
53	0x3f9472d4	1.1597543
54	0x3f5f9b85	0.8734668
55	0x3f865844	1.0495687
56	0x3f762074	0.9614327
57	0x3f7780db	0.9668099
58	0x3f700f3f	0.93773264
59	0x3f570ab1	0.8400069
60	0x3f83e742	1.0304949
61	0x3f7f0a37	0.9962496
62	0x3f772367	0.96538395
63	0x3f815edc	1.0107074

input.1.bias f4 [64]
0	0xbd428ef2	-0.047499605
1	0x3b895691	0.0041912277
2	0x3ce970c2	0.02849615
3	0xbd772df7	-0.06034657
4	0xbe0213d1	-0.12702872
5	0xbd35247a	-0.04422424
6	0xbd84e98c	-0.06489858
7	0x3d0905cf	0.033452805
8	0x3ddec807	0.10877996
9	0xbd90ee0b	-0.07076653
10	0x3d459047	0.048233297
11	0x3d888be1	0.06667305
12	0xbe2c0778	-0.16799724
13	0xbdb86d61	-0.09005237
14	0x3e6ec4d6	0.23317274
15	0x3c00d809	0.007864007
16	0x3e11f5f1	0.14253975
17	0xbd7de513	-0.06198604
18	0x3e0d5263	0.1380096
19	0xbdcd1a34	-0.100147635
20	0xbde63949	-0.11241395
21	0xbd3dbb09	-0.04632095
22	0x3cb9ac9a	0.02266531
23	0x3cce07eb	0.02515026
24	0xbd823e37	-0.06359523
25	0xbe11ca4c	-0.14237326
26	0x3cf9cc33	0.030492878
27	0xbe0c451e	-0.13698241
28	0xbcb18207	-0.021668447
29	0xbdc94359	-0.09827299
30	0xbe03f5f1	-0.12886788
31	0x3bee5e65	0.0072744363
32	0x3d94d691	0.07267488
33	0xbd448209	-0.047975574
34	0x3d14dea3	0.036345135
35	0xbe3292c6	-0.17438802
36	0xbc1b4905	-0.009477858
37	0x3da40390	0.08008492
38	0x3e1b6840	0.15176487
39	0x3d0710df	0.032975074
40	0x3e464abb	0.19364445
41	0xba7dab34	-0.00096766953
42	0x3e2515c3	0.16121583
43	0x3ccc25bc	0.024920337
44	0x3db9d6e5	0.09074191
45	0x3c98f908	0.018673435
46	0xbd8defdc	-0.06930515
47	0x3d3511ac	0.044206306
48	0x3dc0c2db	0.09412166
49	0x3defaa9f	0.11702465
50	0xbd630cca	-0.05543212
51	0xbe08c558	-0.1335653
52	0xbe0b15b4	-0.13582498
53	0x3e47bcd5	0.19505627
54	0xbddc4406	-0.10755162
55	0x3e13c44f	0.14430355
56	0x3bcff326	0.006346124
57	0xbda5efb3	-0.081023596
58	0xbcfe7e69	-0.031066136
59	0xbe1c48bf	-0.15262125
60	0x3db8f79e	0.09031604
61	0x3e17851d	0.14796872
62	0x3dcced0e	0.10006152
63	0x3ddcf140	0.10788202

input.1.running_mean f4 [64]
0	0x3da0ba0f	0.07847988
1	0x3c1074ed	0.00881694
2	0xbc5b6e6c	-0.013393026
3	0xbd457ede	-0.048216693
4	0x3e31993c	0.1734361
5	0x3a925c31	0.0011166391
6	0xbb96315c	-0.004583521
7	0xbaf74e28	-0.0018867897
8	0xbba19045	-0.0049305283
9	0xbd084869	-0.03327218
10	0x3ceb5d26	0.02873094
11	0x3caace5f	0.020850359
12	0xbe70ab06	-0.2350274
13	0xbb2f65a5	-0.0026763466
14	0xbb727ff6	-0.003700254
15	0xbb81f164	-0.0039655436
16	0xbb3e859b	-0.0029071334
17	0xbd6e2788	-0.05814317
18	0xbabf0178	-0.0014572581
19	0xbcce5cc7	-0.025190724
20	0xbe8ce4b8	-0.2751825
21	0xbc686974	-0.014185298
22	0xbb831a69	-0.004000951
23	0x3af392d7	0.001858319
24	0x3cc17442	0.023615006
25	0x3f0a89ee	0.54116714
26	0x3c895f91	0.016769202
27	0xbea2d19d	-0.31800547
28	0xbd413a42	-0.0471747
29	0x3d6b2563	0.0574087
30	0xbe902219	-0.28151014
31	0xbd0a05a3	-0.03369678
32	0x3c0f12c3	0.0087325005
33	0x3d0d4cc1	0.034497026
34	0x3a36005e	0.0006942804
35	0xbf149744	-0.58043313
36	0x3b3ed737	0.0029119977
37	0xbb3e186a	-0.002900625
38	0xbbd1830b	-0.0063937954
39	0x3cfc4b53	0.030797636
40	0xbc2baabb	-0.010477717
41	0x3a8c7494	0.0010715895
42	0xbbe32bcf	-0.0069327126
43	0x3b087bc6	0.0020825728
44	0x3b81c072	0.003959709
45	0xbb43ae8d	-0.002985868
46	0xbd826073	-0.063660525
47	0x3caab78c	0.020839475
48	0x3be8fd9c	0.0071103107
49	0xbc2dcf0c	-0.010608446
50	0xbae4cb09	-0.0017455529
51	0xbea34248	-0.31886506
52	0xbdeca209	-0.11554343
53	0xba2c8609	-0.0006581252
54	0x3d81520a	0.06314476
55	0x3cce7dd8	0.025206491
56	0xbb964613	-0.00458599
57	0xbce1434f	-0.027497916
58	0x3dc731e4	0.09726313
59	0xbf28f9e4	-0.660063
60	0xba9ae0d1	-0.0011816268
61	0x3c5a32c2	0.013317766
62	0x3c2fe080	0.010734677
63	0xbc35db77	-0.011099688

input.1.running_var f4 [64]
0	0x3bc8eca3	0.006131725
1	0x3b33b795	0.0027422656
2	0x3bc76096	0.006084512
3	0x3b9d7ad3	0.0048059016
4	0x3c5378aa	0.0129071865
5	0x3b97257d	0.0046126232
6	0x3b80a207	0.003925565
7	0x3c4a0063	0.012329194
8	0x3bc2f39f	0.005949452
9	0x3b0dae51	0.0021618793
10	0x3b2b5672	0.0026144055
11	0x3b71981f	0.0036864353
12	0x3c9bbacb	0.019009968
13	0x3b4e7ae5	0.0031506356
14	0x3acf8795	0.0015833253
15	0x3b0de230	0.002164971
16	0x3aeae337	0.0017920499
17	0x3be88485	0.0070958757
18	0x3b2f27a6	0.0026726513
19	0x3b20aca1	0.0024516957
20	0x3c97e13a	0.018540014
21	0x3a193171	0.0005843854
22	0x3b6b21d9	0.003587833
23	0x3b88c619	0.0041740057
24	0x3b955b64	0.0045580138
25	0x3d90dad2	0.07072987
26	0x3b729c40	0.0037019402
27	0x3ccc775f	0.024959264
28	0x3c163fe7	0.009170509
29	0x3b22b9f5	0.0024830077
30	0x3ccadf01	0.02476454
31	0x3ae3ac28	0.0017370032
32	0x3bf5cf7e	0.0075015416
33	0x3ba0ba86	0.004905048
34	0x3c5242b8	0.01283329
35	0x3daefea6	0.08544664
36	0x3b6d25c5	0.0036185842
37	0x3b6fb61f	0.0036577058
38	0x3be45ac0	0.006968826
39	0x3b69b51f	0.0035660935
40	0x3b4f27c7	0.0031609403
41	0x3bf42232	0.0074503655
42	0x3a91d7cb	0.0011126933
43	0x3bae0daa	0.0053116875
44	0x3bc3c931	0.0059749116
45	0x3b5a8fb0	0.0033349805
46	0x3bdf1192	0.0068075145
47	0x3b0ba3ce	0.0021307352
48	0x3b2f703d	0.002676978
49	0x3b4e3387	0.0031463818
50	0x3ab9ce99	0.0014175951
51	0x3cd5dac1	0.026105287
52	0x3c0434a8	0.008069195
53	0x3bab9912	0.0052367533
54	0x3b939761	0.0045041298
55	0x3b0eea69	0.00218072
56	0x3b97a5ba	0.0046279104
57	0x3b840269	0.0040286076
58	0x3c5c1cf1	0.013434635
59	0x3dd51f05	0.10406307
60	0x3aad0008	0.0013198862
61	0x3bb12a65	0.005406665
62	0x3b8342a2	0.004005746
63	0x3c05a500	0.008157015

conv1.0.weight f4 [64, 64, 3, 3]
0	0xbce314b9	-0.027719842
1	0xbc1c4785	-0.009538536
2	0xbc6248bc	-0.013811287
3	0xbcb6b3c8	-0.022302523
4	0x3c3dbbb2	0.011580395
5	0x39e14e5e	0.00042973732
6	0xbcba5bff	-0.022748945
7	0xbb1daeba	-0.0024060444
8	0x3d3a6328	0.04550472
9	0x3ce7fa56	0.028317612
10	0xbc8944fb	-0.016756525
11	0xbcde8b7f	-0.027166126
12	0x3d67165d	0.05641781
13	0xbc150975	-0.009096493
14	0xbd4a54e3	-0.04939736
15	0xbb148163	-0.0022660128
16	0x3beaad08	0.00716174
17	0xbbaba90d	-0.0052386583
18	0xbc2ba15a	-0.010475481
19	0x3d39c821	0.045356873
20	0x3cefeb4e	0.029287007
21	0xbbf1f654	-0.007384101
22	0x3d3f9b0d	0.046778727
23	0xbb065855	-0.0020499427
24	0xba43fbaa	-0.00074761605
25	0xbca2996d	-0.01984855
26	0x3a9cc750	0.0011961255
27	0xbc0b08d3	-0.008485991
28	0x3ce7ca7b	0.028294792
29	0x3d0ada09	0.03389934
30	0xbcdaf89d	-0.026729876
31	0x3d111448	0.035419732
32	0x3c57439d	0.013138679
33	0xbc41c457	-0.011826596
34	0xbce55bc1	-0.027997853
35	0x3d21c994	0.03949888
36	0x3cfbfcc9	0.030760186
37	0xbd2338b8	-0.039849013
38	0xbc75bf04	-0.014999155
39	0x3c3ddfe9	0.011589029
40	0xbcfc9b59	-0.030835794
41	0xbce0436f	-0.027375905
42	0x3ce1a1bf	0.027542947
43	0xbce0079f	-0.027347384
44	0xbb548935	-0.0032430415
45	0x3c23df9a	0.010002041
46	0xbd252c04	-0.04032518
47	0x3c3eff7f	0.011657595
48	0xbd1d4e64	-0.038404837
49	0xbc60ac4a	-0.013712952
50	0xba90388a	-0.0011003178
51	0x3b2ac7ad	0.0026058957
52	0xbd10d0b4	-0.035355285
53	0x3ca4ec30	0.020132154
54	0x3d50833d	0.05090641
55	0xbb60d7f2	-0.00343084
56	0x3b7edc48	0.0038888622
57	0x3d1948b5	0.037422854
58	0xbb88a933	-0.0041705607
59	0x3b61e456	0.0034468374
60	0x3d01c39b	0.031680685
61	0x3d1024c0	0.035191298
62	0x3c0f5553	0.00874837
63	0x3a01d31b	0.00049524166
64	0xbbe7c713	-0.007073292
65	0xbd25f80f	-0.04051977
66	0xbd1d2801	-0.03836823
67	0x3c74075c	0.014894333
68	0x3d0032eb	0.03129856
69	0xbd50b2d8	-0.05095181
70	0x3cd63184	0.026146658
71	0x3caa1e35	0.020766357
72	0xbd7f9f3c	-0.062407717
73	0xbd1f8d02	-0.038952835
74	0x3c3d3ee9	0.0115506435
75	0xbcf730ff	-0.03017473
76	0xbc43cf2b	-0.011951248
77	0x3d3cb65c	0.04607235
78	0x3cadd0a9	0.021217661
79	0xbc3eb5ef	-0.011640056
80	0x3c92c068	0.017914012
81	0x3cb4b7c5	0.022060284
82	0xbca691db	-0.020333221
83	0xbb13e6e9	-0.0022568053
84	0xbd294032	-0.041320987
85	0xbc7ce64c	-0.015435766
86	0x3c853924	0.016262598
87	0xbd368fe8	-0.044570833
88	0x3d17eb7a	0.037089802
89	0xbbb6f1fa	-0.005583045
90	0x3d5176a1	0.051138524
91	0xbc337f64	-0.010955665
92	0xbcf3db41	-0.029767634
93	0x3bb0b5e9	0.005392779
94	0xbc8a9c33	-0.016920185
95	0x3c8939b4	0.016751148
96	0x3d3914f6	0.045186006
97	0x3bcee308	0.0063136853
98	0xbd6421a8	-0.05569616
99	0x3ce8dee6	0.028426599
100	0xbc9ab131	-0.01888332
101	0x3cca75b2	0.024714325
102	0xbcc6b653	-0.02425686
103	0x3d5353a0	0.051593423
104	0x3b41f461	0.0029595124
105	0xbc1baac4	-0.009501163
106	0x3d119ffd	0.035552967
107	0xbc17ff11	-0.009277121
108	0x3d2b71fa	0.041856743
109	0xbc393e79	-0.011306399
110	0xbc732e63	-0.014842602
111	0x3d2df4c0	0.04246974
112	0xbc9adcf5	-0.018904189
113	0xbc95d0b6	-0.018287998
114	0xbcdf2cca	-0.027243037
115	0x3a59e9f6	0.0008312756
116	0x3c0f25e2	0.008737059
117	0xbc51fa65	-0.012816046
118	0xbcaaf41c	-0.020868354
119	0x3d6ca4c3	0.057774317
120	0x3c8e5d85	0.017378578
121	0xbc75781b	-0.014982249
122	0xba3a7603	-0.0007112922
123	0x3aff035f	0.0019455961
124	0xbaaead81	-0.0013326855
125	0x3c736477	0.014855496
126	0x3d747dd9	0.05969033
127	0xbc8fd365	-0.017556855
128	0x3c22806a	0.009918312
129	0x3d178294	0.036989763
130	0xbcb60c55	-0.022222677
131	0xbb163000	-0.0022916794
132	0x3cd6ce28	0.02622135
133	0xbc66c6ed	-0.014085514
134	0xbc97bc31	-0.018522354
135	0xbca88595	-0.02057151
136	0xbcd2a94b	-0.02571549
137	0xbbb3830e	-0.0054782694
138	0xbd1c392e	-0.03814047
139	0xbca369d1	-0.019947918
140	0x3caffd29	0.02148302
141	0x3d5191da	0.051164486
142	0x3d22fc95	0.039791662
143	0xbcd7c33a	-0.026338208
144	0x3b371be1	0.00279402
145	0x3ccf7f79	0.025329338
146	0x3cc62166	0.024185847
147	0x3c596b4c	0.0132702105
148	0x3c81230e	0.015763786
149	0xbd25b201	-0.04045296
150	0xbca002f8	-0.019532666
151	0x3ba3f5b6	0.0050036563
152	0x3cda0209	0.026612299
153	0xbc2d3855	-0.010572513
154	0x3b0d8d14	0.0021598982
155	0xbc9f493b	-0.019444099
156	0xbab855a8	-0.0014063613
157	0xbd2c78f7	-0.04210755
158	0x3ce04885	0.02737833
159	0x3c8944ed	0.0167565
160	0xbc885515	-0.016642133
161	0x3ca234f5	0.019800643
162	0xbd2f08e3	-0.042733084
163	0x3d132132	0.03592033
164	0x3d6b8dc0	0.05750823
165	0xbcc34173	-0.02383492
166	0x3c848f1f	0.016181527
167	0x3b473758	0.0030397978
168	0xbd59c295	-0.053164084
169	0x3ce7c008	0.02828981
170	0x3cad2364	0.02113504
171	0xbba327ea	-0.0049791234
172	0xbcbe7d49	-0.0232531
173	0x3c9c3535	0.01906834
174	0x3d363f81	0.044494156
175	0x3d44d6ae	0.048056297
176	0xbbf8729a	-0.007582021
177	0x3b525433	0.0032093644
178	0xbc5f007f	-0.013610958
179	0xbd2cfd16	-0.04223355
180	0x3d15f334	0.03660889
181	0xbccfb843	-0.025356418
182	0x3cd39513	0.02582792
183	0xbd1ca7cd	-0.038245965
184	0x3cbc29b6	0.022969108
185	0x3c81272f	0.015765755
186	0xbbe9b7e6	-0.007132518
187	0x3d06c06a	0.032898344
188	0x3cc7bdcb	0.024382493
189	0x3c897c45	0.01678289
190	0xbd4c573c	-0.04988788
191	0xbcb2c87c	-0.021824114
192	0xbc95ac53	-0.018270647
193	0xbca0c08c	-0.019623064
194	0xbc330694	-0.010926861
195	0xbbe1ef01	-0.0068949466
196	0xbbab3f4c	-0.0052260514
197	0xbbe681f1	-0.007034533
198	0x3d91b259	0.07114095
199	0x3af8efec	0.0018992401
200	0xbd44d1d0	-0.048051655
201	0xbc338d26	-0.010958945
202	0x3bb42ba5	0.005498367
203	0xbd5e9e13	-0.05434997
204	0xbcb4d6a0	-0.022074997
205	0xbc027e35	-0.00796466
206	0xbc61b5de	-0.013776271
207	0xbcbb1511	-0.022837194
208	0xbd366c5b	-0.04453693
209	0xbcb60fe7	-0.02222438
210	0xbd3d867a	-0.046270825
211	0x3c5b94cb	0.013402174
212	0xbc5bc59e	-0.013413815
213	0xbc826590	-0.01591757
214	0xbbb906aa	-0.0056465464
215	0xbcca762e	-0.024714556
216	0x3c9755b2	0.01847348
217	0xbd0f1ddf	-0.034940597
218	0xbc937e33	-0.018004512
219	0xbc72c182	-0.014816644
220	0x3d01212d	0.03152578
221	0x3ca96962	0.020680133
222	0x3cea204b	0.028579852
223	0xbbad1da3	-0.005283074
224	0xbd03e5e3	-0.03220166
225	0x3d08ce63	0.03339995
226	0xbcdec810	-0.027195007
227	0x3a6dbfa2	0.0009069388
228	0x3d0644b6	0.03278037
229	0x3cc84202	0.024445537
230	0x3c83c8e7	0.016087009
231	0x3d1f275c	0.038855895
232	0x3c0fd737	0.008779339
233	0xbc8efaea	-0.01745363
234	0x3baf0e4b	0.00534228
235	0xbccc3456	-0.0249273
236	0xbc10624f	-0.008812501
237	0x3c235afd	0.009970424
238	0xbd29da60	-0.041468024
239	0xbd1a2945	-0.037637014
240	0x3d499312	0.049212523
241	0xbd49dff1	-0.049285833
242	0xbc1d8f90	-0.0096167475
243	0x3cad0fe2	0.021125738
244	0xbc9b5d0e	-0.01896527
245	0x3c1867d7	0.009302101
246	0x3ba4da91	0.005030938
247	0x3d274d84	0.04084541
248	0xbcfc7ac2	-0.030820254
249	0x3d0056fa	0.031332947
250	0xbd11afbe	-0.03556799
251	0x3c35b0f7	0.011089555
252	0xbc2d0edd	-0.010562626
253	0x3b9dba95	0.004813502
254	0xbcc6d0a5	-0.024269411
255	0xbcd43393	-0.025903499

conv1.0.bias f4 [64]
0	0x360cc3cd	2.0975597e-06
1	0x37339f37	1.07063015e-05
2	0x36e491a8	6.811886e-06
3	0xb3c95c2b	-9.376557e-08
4	0x36fb0978	7.481485e-06
5	0xb4a0daa8	-2.9961416e-07
6	0xb69d7bc7	-4.693374e-06
7	0x37410a5d	1.1506109e-05
8	0xb40c838e	-1.3086375e-07
9	0x360fcaff	2.142682e-06
10	0x361c0dc5	2.3253826e-06
11	0x36638db8	3.3908127e-06
12	0xb60a307a	-2.059182e-06
13	0xb600de69	-1.9202946e-06
14	0x3627f961	2.5030097e-06
15	0xb7670b2e	-1.3771276e-05
16	0x34acb3ed	3.216841e-07
17	0xb6020cdd	-1.9378997e-06
18	0x348e33d3	2.6487268e-07
19	0xb464b181	-2.129873e-07
20	0xb6aa3215	-5.072225e-06
21	0xb4db9ba5	-4.0905175e-07
22	0x370d467c	8.420666e-06
23	0x3702f437	7.8054645e-06
24	0xb7540730	-1.2637858e-05
25	0xb59e6cab	-1.1803544e-06
26	0xb4df0313	-4.1539224e-07
27	0x363c2e72	2.8041218e-06
28	0xb5d8318f	-1.6107678e-06
29	0x369a4bb3	4.59837e-06
30	0x369c737b	4.662606e-06
31	0xb753fb04	-1.2635024e-05
32	0x3698fc61	4.559334e-06
33	0x36492bea	2.9976895e-06
34	0xb5acf372	-1.288585e-06
35	0xb735ae51	-1.0829027e-05
36	0x3611010a	2.1607289e-06
37	0xb5aaef01	-1.2735546e-06
38	0x3613114e	2.191478e-06
39	0xb633c440	-2.678731e-06
40	0x35b5d3dd	1.3547211e-06
41	0xb74568a1	-1.1766476e-05
42	0x361abb82	2.3056932e-06
43	0x35a6ef79	1.243766e-06
44	0x36ba07d3	5.544143e-06
45	0xb635d996	-2.7097753e-06
46	0xb68087bf	-3.8305e-06
47	0xb698a45e	-4.549088e-06
48	0x36d604fa	6.3782763e-06
49	0xb6641a8d	-3.3990102e-06
50	0x359fe039	1.191168e-06
51	0xb74dc979	-1.2265861e-05
52	0x37245a2f	9.796159e-06
53	0x375e253c	1.32409e-05
54	0xb753eefb	-1.2632222e-05
55	0x34761ad2	2.2920293e-07
56	0x365c314d	3.2811251e-06
57	0x36bd1b4e	5.6358176e-06
58	0x35be597b	1.4182145e-06
59	0x3696496e	4.4788967e-06
60	0xb52ddbe1	-6.476749e-07
61	0xb35828f7	-5.0328676e-08
62	0x3707b153	8.087914e-06
63	0x355eb3a7	8.2962873e-07

conv1.1.weight f4 [64]
0	0x3f74338c	0.95391154
1	0x3f70822f	0.93948644
2	0x3f68f8e3	0.9100477
3	0x3f5dffe8	0.86718607
4	0x3f70ad71	0.9401465
5	0x3f666729	0.9000116
6	0x3f5638f2	0.8368064
7	0x3f69bdb4	0.9130509
8	0x3f7949f9	0.973785
9	0x3f71a915	0.94398624
10	0x3f657393	0.8962948
11	0x3f67f51a	0.9060837
12	0x3f65be4b	0.8974349
13	0x3f63a1b7	0.8891863
14	0x3f5dca03	0.8663637
15	0x3f65ccfb	0.897659
16	0x3f67f2a9	0.90604645
17	0x3f6bfdcf	0.92184156
18	0x3f61d6cb	0.88218373
19	0x3f659063	0.8967344
20	0x3f6acc49	0.91717964
21	0x3f6daed0	0.9284487
22	0x3f5d616c	0.8647678
23	0x3f7286ad	0.9473675
24	0x3f674d81	0.90352637
25	0x3f6956e1	0.9114819
26	0x3f644706	0.89170873
27	0x3f5d296f	0.8639135
28	0x3f69b6b9	0.9129444
29	0x3f64adfe	0.8932799
30	0x3f6a6786	0.91564214
31	0x3f6d958d	0.9280632
32	0x3f660abf	0.8986015
33	0x3f641bb8	0.89104795
34	0x3f69bfc0	0.9130821
35	0x3f57f957	0.8436484
36	0x3f719119	0.94362026
37	0x3f6b8dac	0.9201305
38	0x3f6f1109	0.9338537
39	0x3f73a064	0.9516661
40	0x3f6de8b5	0.9293321
41	0x3f6430fe	0.89137256
42	0x3f6ef9ed	0.93350106
43	0x3f6c90c6	0.92408407
44	0x3f637d3e	0.8886298
45	0x3f7fcf24	0.99925447
46	0x3f625800	0.8841553
47	0x3f63274e	0.8873185
48	0x3f72b74c	0.9481094
49	0x3f771d25	0.96528846
50	0x3f65bab6	0.89738023
51	0x3f68cbb0	0.909358
52	0x3f801654	1.0006814
53	0x3f7005cb	0.9375884
54	0x3f72a5d6	0.94784296
55	0x3f665abe	0.8998221
56	0x3f56ff49	0.83983284
57	0x3f712767	0.9420075
58	0x3f61db1a	0.8822495
59	0x3f68709b	0.9079682
60	0x3f5d38ea	0.8641497
61	0x3f6a67e3	0.9156477
62	0x3f718470	0.9434271
63	0x3f768006	0.962891

conv1.1.bias f4 [64]
0	0xbe30e70c	-0.17275637
1	0xbdaa6e71	-0.08321846
2	0xbe3340f5	-0.17505248
3	0xbe13c094	-0.14428931
4	0xbe039c69	-0.12852634
5	0xbe1945ea	-0.14968076
6	0xbe371617	-0.1787952
7	0xbdeb0e24	-0.114773065
8	0xbd70bfd0	-0.058776677
9	0xbded4978	-0.11586279
10	0xbe3c30ae	-0.18377945
11	0xbe21b3be	-0.15791222
12	0xbe634fcf	-0.22198413
13	0xbe13b4bc	-0.14424413
14	0xbe227646	-0.1586543
15	0xbdedce2d	-0.116115905
16	0xbe0b8786	-0.13625917
17	0xbdff66c0	-0.1247077
18	0xbe0f2e49	-0.139825
19	0xbe2d9921	-0.16952945
20	0xbe280330	-0.16407466
21	0xbe0784df	-0.1323428
22	0xbe211cbc	-0.15733618
23	0xbdeec893	-0.1165935
24	0xbdefe333	-0.11713257
25	0xbe17177a	-0.1475505
26	0xbe41cdd7	-0.18926178
27	0xbe0db06f	-0.13836835
28	0xbe0ca6ad	-0.13735457
29	0xbe106f96	-0.14105067
30	0xbdb82c72	-0.08992852
31	0xbe2a8a47	-0.16654311
32	0xbdc0a446	-0.09406333
33	0xbe08849e	-0.1333184
34	0xbe1543e3	-0.14576678
35	0xbe1af370	-0.15131927
36	0xbdd533d1	-0.10410274
37	0xbe0ea77c	-0.13931078
38	0xbe187603	-0.14888768
39	0xbe42ef9b	-0.19036715
40	0xbe24f5be	-0.16109368
41	0xbe03840e	-0.12843344
42	0xbdd007da	-0.101577476
43	0xbdea1659	-0.11430044
44	0xbdf41be9	-0.11919386
45	0xbe06e4cb	-0.13173215
46	0xbe0c7619	-0.13716926
47	0xbdd284e3	-0.102792524
48	0xbe13eb0e	-0.14445135
49	0xbe0fd2b2	-0.14045218
50	0xbe027f48	-0.12743866
51	0xbdc15cdb	-0.09441539
52	0xbe0623f5	-0.13099654
53	0xbe13606e	-0.14392254
54	0xbe5ec41f	-0.21754502
55	0xbe05bfd0	-0.13061452
56	0xbe4572c5	-0.19282062
57	0xbe14ba73	-0.1452425
58	0xbe30654f	-0.17226146
59	0xbe0fd892	-0.14047459
60	0xbe29ddec	-0.16588563
61	0xbe11523e	-0.14191529
62	0xbdcdade9	-0.10042936
63	0xbddd5a03	-0.10808184

conv1.1.running_mean f4 [64]
0	0xbe9503ed	-0.29104558
1	0xbf2652f3	-0.6497032
2	0xbf147945	-0.5799754
3	0xbf183d7d	-0.59468824
4	0xbfc27d70	-1.519453
5	0x3f8393e8	1.0279512
6	0xbd00c104	-0.031434074
7	0xbe95e233	-0.2927414
8	0xbe89ebb3	-0.26937637
9	0xbf3d8031	-0.7402373
10	0x3f8d0965	1.1018492
11	0xbeaba2ad	-0.3352255
12	0xbf8883da	-1.0665238
13	0xbf180ae6	-0.5939163
14	0xbeaeb9e0	-0.34126186
15	0xbeb0f906	-0.3456499
16	0x3e90b07a	0.2825964
17	0x3fb93ceb	1.4471716
18	0xbe89e0f5	-0.2692944
19	0x3f33a8fc	0.70179725
20	0xbf2d3e27	-0.6767296
21	0xbed1ac78	-0.40951896
22	0xbf5477c4	-0.8299525
23	0xbfbae13b	-1.4599985
24	0xbf027593	-0.50960654
25	0xbf97263c	-1.1808543
26	0xbf74f7dc	-0.95690703
27	0x3ea4b28c	0.3216747
28	0xbf020a49	-0.50796944
29	0xbf386088	-0.72022295
30	0xbf3893df	-0.72100633
31	0xbed72b11	-0.42025045
32	0xbf432be5	-0.7623885
33	0xbdadd6c4	-0.08488229
34	0xbe854e83	-0.26036462
35	0xbda56618	-0.080761135
36	0x3e8c1eac	0.2736715
37	0xbf3306db	-0.69932336
38	0xbf192897	-0.5982756
39	0xbf542a77	-0.82877296
40	0xbe89be0d	-0.2690281
41	0xbeb9ab6c	-0.36263597
42	0xbf7bd834	-0.98376775
43	0xbf4fa364	-0.8110869
44	0xbf3c5c36	-0.735782
45	0xbfc3724d	-1.5269257
46	0xbf3d7301	-0.7400361
47	0xbf07c035	-0.5302766
48	0xbe8bcbc8	-0.2730391
49	0xbf340908	-0.7032628
50	0xbf15cb03	-0.58512896
51	0xbf199147	-0.599873
52	0xbf8da071	-1.1064588
53	0xbf13313d	-0.57497007
54	0xbeedf108	-0.46472955
55	0xbf8fa30b	-1.1221632
56	0x3dd8cd32	0.10586013
57	0xbf4887ec	-0.783324
58	0xbedd4c3a	-0.4322222
59	0xbee3ed1f	-0.44516847
60	0x3ded9655	0.11600939
61	0xbf0520b1	-0.5200301
62	0xbf0ab9af	-0.5418958
63	0xbec3c27d	-0.3823432

conv1.1.running_var f4 [64]
0	0x3f789ede	0.9711741
1	0x3f4528ee	0.7701558
2	0x3ee59ba5	0.4484531
3	0x3ef34165	0.4751083
4	0x3f90ef1f	1.1322974
5	0x3f8c4c37	1.0960759
6	0x3ec01aee	0.37520546
7	0x3eef102b	0.46692023
8	0x3f7b3a96	0.9813627
9	0x3f348908	0.70521593
10	0x3ee92bea	0.45541316
11	0x3eec94b1	0.46207193
12	0x3f86fb04	1.0545354
13	0x3ee0ac24	0.43881333
14	0x3f861e03	1.0477909
15	0x3ee06fd2	0.43835312
16	0x3f1f9992	0.62343705
17	0x3f91f749	1.140359
18	0x3ead181a	0.3380745
19	0x3f224153	0.63380927
20	0x3f5c7cdf	0.8612804
21	0x3f2634d3	0.64924353
22	0x3fa34d39	1.2757941
23	0x3f79fa33	0.976474
24	0x3ed3a865	0.41339412
25	0x3faa4e6c	1.3305182
26	0x3fa0651f	1.253086
27	0x3f13780f	0.5760507
28	0x3f103108	0.56324816
29	0x3f1471a1	0.57985884
30	0x3f578ac0	0.8419609
31	0x3f5a5620	0.85287666
32	0x3f7eaa7a	0.99478877
33	0x3f46d1da	0.7766396
34	0x3ed3fc9c	0.41403663
35	0x3ec84bc1	0.39120296
36	0x3f5a0521	0.85164076
37	0x3f4d057e	0.80086505
38	0x3f0cb0d6	0.5495733
39	0x3fcbf4ac	1.5934043
40	0x3f12298d	0.5709465
41	0x3f172bb6	0.5905107
42	0x3f0c055f	0.54695696
43	0x3f99dd2c	1.2020621
44	0x3f3308f9	0.69935566
45	0x3fa4408c	1.2832198
46	0x3f30941a	0.68975985
47	0x3f24d76c	0.6439121
48	0x3f147dca	0.5800444
49	0x3f5671b4	0.8376725
50	0x3f1c3bb9	0.6102863
51	0x3f228fcf	0.63500684
52	0x3f850812	1.0393088
53	0x3f254ca7	0.6457009
54	0x3f0da88c	0.5533531
55	0x3f614431	0.87994677
56	0x3f25bc11	0.6474009
57	0x3f030825	0.511843
58	0x3f10b516	0.56526315
59	0x3f6d305a	0.92651904
60	0x3ee58787	0.44829962
61	0x3f0d9390	0.5530329
62	0x3f01ee30	0.5075407
63	0x3f67c097	0.90528244

res1.0.0.weight f4 [32, 64, 3, 3]
0	0x3c0f1f24	0.008735452
1	0xbd468700	-0.04846859
2	0xbd91a844	-0.07112172
3	0xbabc7a52	-0.0014379716
4	0xbcd6476e	-0.026157107
5	0xbd8cc74e	-0.06873952
6	0x3a39a353	0.0007081527
7	0xbd481717	-0.048850145
8	0x3bbc1f09	0.0057410044
9	0x3c3d5332	0.01155548
10	0x3b9d06fd	0.004792093
11	0xbd944166	-0.07239036
12	0x3cfbf649	0.030757086
13	0xbcac076b	-0.02099963
14	0xbd37d311	-0.044879023
15	0x3d1fe2f1	0.039034788
16	0xbc77bf6a	-0.01512132
17	0xbc810414	-0.015749015
18	0x3bbdea79	0.0057957736
19	0x3d059884	0.032616153
20	0x3d0fde01	0.03512383
21	0xbcac1089	-0.021003978
22	0x3cb5e4b7	0.022203786
23	0xbcff6ef3	-0.031180834
24	0xbd2fd248	-0.04292515
25	0x3a31fd75	0.0006789782
26	0xbc1a3f3b	-0.009414489
27	0xbd0dce20	-0.034620404
28	0x3cb9eff2	0.022697423
29	0x39fa51b6	0.00047744595
30	0x3d271343	0.040789854
31	0x3c91da13	0.017804181
32	0xbd60b794	-0.054862574
33	0x3cf55f11	0.029952558
34	0x3b98eaa2	0.0046666423
35	0xbc919cd3	-0.017774975
36	0x3c66b87f	0.014082073
37	0xbce38369	-0.027772622
38	0xbcd69888	-0.02619578
39	0x3bb0f68a	0.0054004835
40	0x3cf97814	0.030452766
41	0x3c844b2f	0.016149132
42	0xbc6c8c05	-0.01443768
43	0xbced11f1	-0.02893922
44	0xbce029c9	-0.027363675
45	0xbc864251	-0.016389044
46	0xbd327961	-0.043572787
47	0xbb9c1a30	-0.004763864
48	0x3bba1532	0.005678796
49	0x3a6d9a8a	0.00090638606
50	0xba4e7a2b	-0.0007876481
51	0x3c4ce909	0.012506732
52	0x3c78eebd	0.015193638
53	0x3cd7f993	0.026364123
54	0xbb01e10e	-0.001981798
55	0x3cbf44cd	0.023348236
56	0xbc9c2eb4	-0.019065239
57	0x3c59aa22	0.013285192
58	0xbd0bd96d	-0.0341429
59	0xbd22b942	-0.039727457
60	0x3d080996	0.033212267
61	0xbcf0c40f	-0.029390363
62	0xbc89dfb1	-0.016830297
63	0x3bdbd50d	0.0067087472
64	0x3ca3c841	0.01999295
65	0xbc0ad911	-0.008474604
66	0x3bbbba21	0.0057289754
67	0xbcc07919	-0.023495244
68	0xbda4eaa6	-0.08052568
69	0xbd119876	-0.03554579
70	0xbba3e8ed	-0.005002132
71	0xb9e7f4b7	-0.0004424208
72	0xbccf18b3	-0.025280332
73	0xbc97c80e	-0.01852801
74	0xbc8b9f75	-0.017043808
75	0xbcdb1b18	-0.026746318
76	0xbd8106d9	-0.06300134
77	0xbc995307	-0.018716348
78	0x3cf75a3d	0.030194396
79	0xbd47c9fd	-0.048776615
80	0xbd3b4017	-0.045715418
81	0x3bdd4526	0.006752628
82	0xbd6c0731	-0.057624046
83	0xbaa40696	-0.001251417
84	0xbd619e83	-0.05508281
85	0xbd1324d9	-0.035923813
86	0xbc807ae8	-0.015683606
87	0xbbb71271	-0.005586915
88	0xbd3dea85	-0.046366233
89	0x3bdbf918	0.006713044
90	0x3c892497	0.01674108
91	0x3d16450a	0.036686935
92	0x3d0cf822	0.034416325
93	0xbd0e75f6	-0.034780465
94	0x3c26b450	0.010174826
95	0xbd2c9b68	-0.042140394
96	0xbc1e04f8	-0.009644739
97	0xbc57e220	-0.013176471
98	0x3d4a6202	0.049409874
99	0xbb44ee26	-0.0030049174
100	0x3ce544ea	0.027986962
101	0xbd20529b	-0.03914128
102	0xbc80ad4d	-0.015707636
103	0x3bbc4d28	0.0057465024
104	0xbc39db90	-0.011343852
105	0x3d2eb2ed	0.042651106
106	0x3c9b0d13	0.018927133
107	0x3c84f452	0.016229782
108	0xbcadf213	-0.021233594
109	0xbb971cab	-0.004611572
110	0xbae70f4a	-0.0017628458
111	0x3d011a16	0.031519018
112	0xbd1c78ee	-0.038201265
113	0xbca048ef	-0.019566027
114	0x3bcb18db	0.0061980314
115	0x3d0b9f2d	0.03408735
116	0xbc85ebb6	-0.016347747
117	0x3c578f0e	0.0131566655
118	0x3c0f2357	0.008736453
119	0xbb78d461	-0.0037968385
120	0xba6feca6	-0.000915239
121	0xbbfe4bc6	-0.0077604977
122	0xbd1231a0	-0.035691857
123	0xbceedd2d	-0.0291582
124	0xbc9a0c87	-0.018804802
125	0x3cc72687	0.024310363
126	0xbc74252f	-0.014901443
127	0xbc6147e4	-0.01375005
128	0xbc67ce05	-0.01414824
129	0xbc1d7576	-0.009610524
130	0x3d232dfe	0.039838783
131	0xbca4bad8	-0.020108625
132	0x3ce7cc48	0.028295651
133	0xbd006f91	-0.031356398
134	0xbd0fd6b3	-0.035116863
135	0x3ba23e83	0.0049512996
136	0x3cb7caca	0.022435565
137	0x3c746dff	0.014918803
138	0xbd3a0f9f	-0.045425054
139	0x3cb5caff	0.022191523
140	0xbcb1a9d1	-0.02168742
141	0xbcc3c601	-0.023898127
142	0x3d14cf9a	0.036330797
143	0xbbb35a33	-0.005473399
144	0xb9a53455	-0.00031510243
145	0x3d19ce66	0.037550353
146	0x3c1a8511	0.00943114
147	0xbb88f902	-0.0041800747
148	0xbc324a8e	-0.010882033
149	0xbb830bbf	-0.003999203
150	0x3d4066b0	0.04697293
151	0x3d6a79db	0.057245117
152	0xbcabebd8	-0.020986483
153	0xbd3e8705	-0.046515483
154	0xbd218f9e	-0.039443605
155	0xbc4d57f8	-0.01253318
156	0xbd48bebd	-0.049010027
157	0x3c079d99	0.00827732
158	0xbd53f2e6	-0.051745318
159	0x3d0ba5de	0.03409373
160	0xbd016e80	-0.03159952
161	0x3ca8da91	0.020612033
162	0xbd12ea9f	-0.035868283
163	0xbd10db7e	-0.035365574
164	0xbc31d6b3	-0.010854411
165	0xbd08009f	-0.033203717
166	0xbcfc6bd9	-0.030813145
167	0xbd7854dc	-0.060627803
168	0xbc244392	-0.010025876
169	0xbd40d06d	-0.04707377
170	0xbd6d6b8a	-0.057963885
171	0xba12f5a1	-0.00056060596
172	0xbcb63449	-0.022241728
173	0xbbf8e062	-0.007595108
174	0xbd142e67	-0.036177065
175	0x3c74c562	0.014939638
176	0xb9e35f85	-0.00043367982
177	0xbc92990c	-0.017895244
178	0x3d4cf8c6	0.050041936
179	0x3d140285	0.036135215
180	0x3cad7187	0.021172298
181	0xba07ef48	-0.0005185497
182	0xbcb0361f	-0.021510182
183	0xbc662a18	-0.014048122
184	0xbcefdb37	-0.029279334
185	0xbcc9b652	-0.02462307
186	0x3d180687	0.0371156
187	0x3c937df7	0.0180044
188	0x3d148c38	0.036266536
189	0x3c668afc	0.014071222
190	0x3d16354a	0.036671914
191	0xbb7896b9	-0.0037931635
192	0x3a740635	0.0009308786
193	0xbd1af1fe	-0.037828438
194	0xbb9eb67b	-0.0048435307
195	0xbc08b012	-0.00834276
196	0x3c1c523d	0.0095410915
197	0xbc9917ad	-0.018688047
198	0xbc7ed9b5	-0.015554835
199	0xbafe7519	-0.001941356
200	0xbb94e6fe	-0.004544138
201	0xbd01c7f8	-0.031684846
202	0xbcca2300	-0.024674892
203	0x3c6a8475	0.014313807
204	0xbab44a2c	-0.0013755015
205	0x3c8b7766	0.017024707
206	0x3d73876c	0.05945532
207	0x3c431ec0	0.011909187
208	0x3b2af839	0.0026087894
209	0x3d14bd16	0.03631314
210	0x3d235d16	0.039883696
211	0x3bde20d2	0.006778815
212	0x3c879de2	0.016554777
213	0xbc6f8fe8	-0.014621712
214	0xbc2965f9	-0.010339254
215	0x3d27cf88	0.0409694
216	0xbcf89bd7	-0.030347748
217	0x3c0b99e1	0.008520574
218	0xbd3ff1bc	-0.046861395
219	0x3a82e96d	0.0009987779
220	0xbc95c232	-0.018281076
221	0xbd8c8966	-0.06862144
222	0xbc986a6e	-0.018605437
223	0xbd6494ec	-0.055806085
224	0xbdc2063d	-0.09473846
225	0xbd4c546e	-0.049885206
226	0xbd035f2c	-0.032073185
227	0x3c9c1b05	0.019055853
228	0x3c1200b0	0.008911297
229	0xbd39d64d	-0.04537039
230	0x3cb6382d	0.022243584
231	0x3c55dc90	0.0130530745
232	0xbc0330b2	-0.008007215
233	0xbd6890c4	-0.056778684
234	0x3b1dee54	0.0024098353
235	0x3d4be92e	0.049782924
236	0x3ce11977	0.027477963
237	0xbca3e703	-0.020007616
238	0x3c4c2988	0.012461074
239	0xbc3edfc0	-0.011650026
240	0x3c349b0b	0.011023293
241	0x3ca4c837	0.020115001
242	0x3c664ee7	0.014056898
243	0xbd0be380	-0.034152508
244	0xbc83c6a8	-0.016085938
245	0x3b1604a9	0.0022890961
246	0x3c9468a7	0.018116308
247	0xbb29c667	-0.002590561
248	0x3c2f4489	0.010697492
249	0xbc3e7137	-0.011623672
250	0x3cf662ea	0.030076463
251	0xbbd592fa	-0.006517765
252	0x3b6c96b1	0.0036100561
253	0x3ccecb49	0.025243418
254	0xbd7dc408	-0.061954528
255	0xbc82d9ed	-0.015973056

res1.0.0.bias f4 [32]
0	0xb60831ec	-2.0294638e-06
1	0x36610acb	3.3533895e-06
2	0xb66301ff	-3.3826798e-06
3	0x35956cd9	1.1133044e-06
4	0x3597b14f	1.130198e-06
5	0x3689d999	4.10825e-06
6	0x361d9947	2.3484042e-06
7	0x36740749	3.6363074e-06
8	0x36b8f553	5.512187e-06
9	0x343c61ca	1.754444e-07
10	0xb52f13b6	-6.5221263e-07
11	0xb6ac296f	-5.130823e-06
12	0x3690a567	4.31079e-06
13	0x370e3d58	8.478142e-06
14	0x36381836	2.743223e-06
15	0x3590ae4d	1.0779564e-06
16	0xb6a0f55e	-4.796936e-06
17	0x35fa1155	1.8631496e-06
18	0xb5724a46	-9.026011e-07
19	0x35af8876	1.3078231e-06
20	0xb5320a56	-6.632521e-07
21	0xb546cd6a	-7.4059665e-07
22	0xb747ccbc	-1.1908993e-05
23	0xb6da3293	-6.502794e-06
24	0xb62295ea	-2.4227143e-06
25	0x369ec937	4.7321914e-06
26	0x36c9f66a	6.018953e-06
27	0x36566c75	3.1951615e-06
28	0xb6904dd5	-4.3005953e-06
29	0x36835e6f	3.9150977e-06
30	0xb6055425	-1.9867523e-06
31	0x373a32b6	1.1098271e-05

res1.0.1.weight f4 [32]
0	0x3f7ddb3b	0.99162644
1	0x3f7811e2	0.96902287
2	0x3f72025f	0.9453487
3	0x3f79511d	0.97389394
4	0x3f777f01	0.9667817
5	0x3f738f38	0.9514041
6	0x3f80bda9	1.005788
7	0x3f69d929	0.91346985
8	0x3f839856	1.0280864
9	0x3f6c4184	0.9228747
10	0x3f74f928	0.9569268
11	0x3f825f84	1.0185399
12	0x3f75b630	0.9598112
13	0x3f82cbb9	1.0218421
14	0x3f6f13c3	0.9338953
15	0x3f8200f0	1.0156536
16	0x3f78f944	0.9725535
17	0x3f6f1f5c	0.93407226
18	0x3f69af33	0.9128296
19	0x3f6f3dff	0.93453974
20	0x3f6473ac	0.89239
21	0x3f836fd5	1.0268503
22	0x3f790333	0.97270507
23	0x3f79c71a	0.9756943
24	0x3f674924	0.9034598
25	0x3f7d7280	0.9900284
26	0x3f81115c	1.0083423
27	0x3f7236b5	0.94614726
28	0x3f7ff335	0.9998048
29	0x3f85b6df	1.0446433
30	0x3f73f535	0.9529603
31	0x3f83e484	1.0304112

res1.0.1.bias f4 [32]
0	0xbd61cbf2	-0.055126138
1	0xbe0f7278	-0.1400851
2	0xbd8f0363	-0.06983068
3	0xbcb8cf40	-0.022559762
4	0xbd831d4d	-0.06402073
5	0xbdd33319	-0.103124805
6	0xbcf30277	-0.029664261
7	0xbd872413	-0.065986775
8	0xbd51a753	-0.051184963
9	0xbdc1f614	-0.09470764
10	0xbdc855ec	-0.09782013
11	0xbda610b9	-0.08108658
12	0xbdfbfda7	-0.1230424
13	0xbd914074	-0.070923716
14	0xbddb0ad8	-0.10695428
15	0xbdce10e0	-0.100618124
16	0xbdb8b0aa	-0.09018071
17	0xbdd3f443	-0.103493236
18	0xbd92b53d	-0.07163475
19	0xbddfd830	-0.10929906
20	0xbdfed669	-0.12443239
21	0xbd75e98b	-0.060037177
22	0xbdaaf486	-0.083474204
23	0xbd65c6e6	-0.056097887
24	0xbdc2e36d	-0.09516034
25	0xbd907e6e	-0.070553645
26	0xbdc31251	-0.09524978
27	0xbdc42941	-0.09578181
28	0xbcdccbaf	-0.026952593
29	0xbdf99af1	-0.12187756
30	0xbdf0623f	-0.11737489
31	0xbe2f052e	-0.1709182

res1.0.1.running_mean f4 [32]
0	0xbfbf543e	-1.4947584
1	0xbed39933	-0.4132782
2	0xbecefa12	-0.40425164
3	0xbf0f4927	-0.55970997
4	0x3ec18c36	0.37802285
5	0xbe311e58	-0.17296731
6	0xbf1cef5b	-0.6130273
7	0xbf4cdf04	-0.80027795
8	0xbf474165	-0.7783416
9	0xbf92957c	-1.1451869
10	0xbe88b103	-0.2669755
11	0xbe973004	-0.2952882
12	0xbe4ea4d6	-0.20180067
13	0xbec69df5	-0.38792387
14	0xbd5e6570	-0.054295957
15	0xbf29cc70	-0.6632757
16	0xbf321b3d	-0.6957281
17	0xbed43fe5	-0.41454998
18	0x3f3a809f	0.7285251
19	0xbfda9e0b	-1.7079481
20	0x3e86652b	0.2624906
21	0xbf0af5de	-0.54281414
22	0xbee82446	-0.45340174
23	0xbf14bd58	-0.58101416
24	0x3e084ec5	0.13311298
25	0xbeff38ab	-0.49847922
26	0xbeebae31	-0.46031335
27	0xbe4d3cd8	-0.20042741
28	0xbf9d9666	-1.2311523
29	0xbfa2d07f	-1.2719878
30	0x3f36c15a	0.7138878
31	0xbf2529e7	-0.6451706

res1.0.1.running_var f4 [32]
0	0x3eb07380	0.3446312
1	0x3e8bb2f5	0.2728497
2	0x3eb799fb	0.35859665
3	0x3ec8cffa	0.39221174
4	0x3e81353f	0.25235936
5	0x3e9213f3	0.28530845
6	0x3eac23f4	0.3362118
7	0x3ea7aca7	0.3274891
8	0x3ed576c7	0.41692182
9	0x3ea5ba7f	0.32368848
10	0x3e9c1d4c	0.30491102
11	0x3e82f27a	0.2557562
12	0x3eb6be5b	0.35692105
13	0x3eb0e0c8	0.34546494
14	0x3e75a751	0.23989607
15	0x3eae6eeb	0.34069
16	0x3e8df677	0.277271
17	0x3e8489bb	0.2588633
18	0x3e91a641	0.28447154
19	0x3eceae39	0.40367296
20	0x3e83da16	0.25752324
21	0x3efd92c2	0.4952603
22	0x3edf0a3f	0.43562505
23	0x3ea44fef	0.32092234
24	0x3e749c4e	0.2388775
25	0x3e913128	0.28357816
26	0x3e8a83bb	0.27053627
27	0x3ec84929	0.39118317
28	0x3ecf1756	0.4044749
29	0x3f371878	0.7152171
30	0x3e60f9cf	0.21970294
31	0x3eb9b1ba	0.36268407

res1.1.0.weight f4 [64, 32, 3, 3]
0	0x3cac5687	0.021037353
1	0x3c02d285	0.007984762
2	0x3d493805	0.04912569
3	0xbb40702b	-0.0029363732
4	0xbda5e654	-0.08100572
5	0xbd85334b	-0.06503924
6	0x3b9d7450	0.0048051253
7	0x39ebe107	0.0004499035
8	0xbcb32484	-0.021867998
9	0x3c8d85bd	0.017275685
10	0x3d2c3dfc	0.0420513
11	0x3d9dffcf	0.07714807
12	0xbca49b09	-0.020093458
13	0xbc2634ff	-0.010144471
14	0x3a12775e	0.0005587245
15	0x3caff1b9	0.021477567
16	0x3bd1627c	0.006389914
17	0x3d44e415	0.04806908
18	0x3cbebcf4	0.02328346
19	0xbcf01575	-0.029307107
20	0xbcac10e9	-0.021004157
21	0xbcb59bf3	-0.022169089
22	0x3c6af5a0	0.014340788
23	0x3bfb6cd1	0.007672884
24	0xbd070dc2	-0.032972105
25	0xbca4bc2a	-0.020109255
26	0xbafa76a0	-0.0019108839
27	0x3bd5d5fd	0.0065257535
28	0x3c988a9e	0.018620785
29	0xbd150177	-0.03637835
30	0xbda4c121	-0.08044649
31	0x3cfe053c	0.031008355
32	0x3ccc9604	0.024973877
33	0xbd224240	-0.039613962
34	0x3d38da84	0.045130268
35	0x3ca3bf18	0.019988582
36	0xbd635836	-0.055504046
37	0x3d08bcc1	0.033383135
38	0xbce8d19a	-0.028420258
39	0xbd74a5da	-0.05972848
40	0xbcaf052f	-0.021364776
41	0xbc17e33d	-0.009270486
42	0xbd000053	-0.03125031
43	0xbd54ef9c	-0.05198632
44	0x3b73e97c	0.0037218025
45	0xbca2f232	-0.019890878
46	0x3c6b0e27	0.014346636
47	0xbd5d79ba	-0.054071166
48	0x3cfe1efb	0.031020632
49	0xbc339904	-0.010961775
50	0x3c2a0727	0.010377682
51	0x3d788ad9	0.06067929
52	0x3d27a33c	0.040927157
53	0x3d4a8348	0.049441606
54	0xbc02bc59	-0.007979476
55	0x3cea1723	0.028575486
56	0x3bb55103	0.005533339
57	0xbcc92fc5	-0.024558911
58	0x3cbd41f1	0.023102732
59	0x3ca14ae5	0.019689033
60	0x3cbc746c	0.023004733
61	0x3ce0a00e	0.02742007
62	0xbcbbdd0d	-0.022932554
63	0x3c2ce275	0.010552038
64	0xbb0ce68f	-0.0021499728
65	0xbd16e301	-0.03683758
66	0x3c8adf66	0.016952228
67	0xbd1063fe	-0.03525161
68	0x3c9aa09d	0.018875415
69	0x3cad6926	0.021168303
70	0xbc63211f	-0.013862877
71	0xbae9bc16	-0.0017832543
72	0xbcc7eedb	-0.024405887
73	0xbd249bc3	-0.04018761
74	0xbdb64922	-0.08900668
75	0xbccd1b89	-0.025037544
76	0xbcc03361	-0.023462
77	0x3ca50ba8	0.02014716
78	0xbd0f9b83	-0.035060417
79	0x3d3d3cbb	0.046200495
80	0xbc02b85c	-0.007978525
81	0x3ce85458	0.02836053
82	0xbc9345d9	-0.017977642
83	0x3c826bad	0.015920484
84	0x3c8593c1	0.016305806
85	0x3da64a2a	0.081196144
86	0xbd265776	-0.040610753
87	0xbd5bc4c8	-0.053654462
88	0x3c4888e2	0.012239667
89	0xbcca8ceb	-0.024725398
90	0x3ccf8f00	0.025336742
91	0xbd6c5f15	-0.057707865
92	0xbd1ca369	-0.038241778
93	0xbdb223e9	-0.086982556
94	0x3d23f4be	0.040028326
95	0xbcbd8578	-0.023134932
96	0x3b746611	0.0037292282
97	0xbd264956	-0.040597282
98	0xbbd67809	-0.006545071
99	0xbd95f80d	-0.073227026
100	0xbd1be49d	-0.03805982
101	0x3c44ad69	0.012004235
102	0x3cce9b53	0.025220549
103	0x3d8910ef	0.06692683
104	0x3da77703	0.081769966
105	0xba1250eb	-0.0005581516
106	0x3d402e87	0.046919372
107	0x3d1fe3ee	0.03903573
108	0x3cd72d6c	0.026266776
109	0xbc4c4fc5	-0.01247019
110	0x3cd61c19	0.026136445
111	0x3d511e6c	0.051054403
112	0x3b41aa46	0.0029550954
113	0xbc20ad4d	-0.009806943
114	0xbcdd7d69	-0.02703734
115	0x3d4b5899	0.04964504
116	0x3cc30703	0.023807054
117	0x3d260fb5	0.040542323
118	0x3c3bf0e2	0.011471005
119	0xba684adc	-0.00088612526
120	0x3dc57f7a	0.09643455
121	0x3c9642c7	0.018342389
122	0x3d8791cc	0.066196054
123	0xbd4902d0	-0.049074948
124	0xbd5ac0aa	-0.053406395
125	0x3c2e5e15	0.010642548
126	0x3c83855e	0.016054805
127	0x3cf3b924	0.029751368
128	0x3c0ba9db	0.008524383
129	0x3d74ff2a	0.059813656
130	0xbcf71646	-0.030161988
131	0x3d10ffe3	0.035400283
132	0x3d91da84	0.07121757
133	0x3c801b0e	0.0156379
134	0x3cd4ac8e	0.025961187
135	0x3d6e90a9	0.058243427
136	0xbd5a02c1	-0.053225283
137	0xbca6960b	-0.020335218
138	0xbcd32a48	-0.025776997
139	0xbd86b0ee	-0.065767154
140	0xbd3aac98	-0.045574754
141	0x3d32f666	0.043692015
142	0xbcafa993	-0.021443164
143	0x3d1177c3	0.035514604
144	0xbd783ceb	-0.06060497
145	0xbd90012f	-0.07031476
146	0xbd1d7058	-0.038437217
147	0x3c5d1288	0.013493188
148	0x3d5fb9d6	0.054620586
149	0x3d57e18e	0.05270534
150	0xbd6e5c50	-0.058193505
151	0xbd5b646c	-0.053562567
152	0xbcaea7c2	-0.021320228
153	0x38dd6de2	0.000105585685
154	0x3d36906e	0.044571333
155	0xbb24ca6e	-0.0025145072
156	0xbcc0c237	-0.023530109
157	0x3cbf3077	0.02333854
158	0x3d122893	0.035683226
159	0x3b72dca7	0.0037057789
160	0x3d88af2d	0.06674037
161	0x3d59e7b7	0.053199496
162	0xbc1a37df	-0.009412735
163	0xbcddd535	-0.027079204
164	0x3d521b79	0.05129573
165	0xbd6aa3dc	-0.057285175
166	0xbce99fb5	-0.028518537
167	0xbd6715ae	-0.05641716
168	0xbdaa9238	-0.0832867
169	0xbd21670e	-0.03940492
170	0xbd7fb081	-0.062424187
171	0xbce8fb2f	-0.028440086
172	0x3d4029ef	0.04691499
173	0xbd30eacd	-0.043192673
174	0xbce2f1d6	-0.027703207
175	0xbd41eb51	-0.047343556
176	0xbc47ea96	-0.012201926
177	0xbc534d2a	-0.012896815
178	0xbd0297a2	-0.03188289
179	0x3d711df3	0.058866452
180	0x3d804485	0.06263069
181	0x3d03c094	0.03216608
182	0x3bc90f42	0.006135852
183	0xbd24e57d	-0.04025792
184	0xbb8f1b2c	-0.004367253
185	0x3d243197	0.040086355
186	0xbce851c1	-0.028359296
187	0xbbcca60a	-0.0062453793
188	0xbccd33cc	-0.025049113
189	0x3dd883f4	0.10572043
190	0x3d41376c	0.047171995
191	0x3d060ca9	0.032726917
192	0x3d0c5427	0.03425994
193	0xbd533882	-0.051567562
194	0x3bf77476	0.007551725
195	0xbd30c443	-0.04315592
196	0xbdcd9c98	-0.100396335
197	0xbdef886a	-0.11695941
198	0x3c945490	0.018106729
199	0xbd5d9223	-0.054094445
200	0xbc04216b	-0.008064608
201	0x3cfecd2f	0.031103699
202	0xbd023d55	-0.031796772
203	0x3d61b95a	0.055108406
204	0x3ce2f5a8	0.027705029
205	0x3bd15db3	0.0063893436
206	0x3d4a6b7d	0.049418915
207	0x3d2066fa	0.039160706
208	0xbd53d170	-0.051713407
209	0xbd1a32c4	-0.03764607
210	0xbcaf0db8	-0.021368846
211	0xbcf71f07	-0.030166162
212	0xbd60473e	-0.05475544
213	0x3cf646f1	0.030063124
214	0x3d07ab3b	0.033122282
215	0xbd1f041f	-0.03882229
216	0x3cea5eae	0.0286096
217	0x3cb7c7ed	0.0224342
218	0xbc739b72	-0.014868604
219	0x3d039f80	0.032134533
220	0xbc97bda2	-0.018523041
221	0xbbe834ed	-0.0070863874
222	0x3cf0adca	0.029379744
223	0xbb15ab78	-0.00228378
224	0xbc1b942d	-0.009495777
225	0xbc5b30f9	-0.013378375
226	0xbda2967b	-0.07938858
227	0x3d0b9382	0.03407622
228	0x3bb0aaa5	0.005391436
229	0xbbd1ae96	-0.006398986
230	0x3c1e2d65	0.009654378
231	0x3a2818b9	0.00064123754
232	0xbc84a9fb	-0.016194334
233	0x3cd760c9	0.026291268
234	0xbd2303f1	-0.03979868
235	0xbd1eddbf	-0.038785692
236	0x3d103221	0.035204057
237	0x3d10f8c3	0.035393488
238	0x3d8ad4a4	0.06778839
239	0x3d7a682f	0.061134513
240	0xbd305a61	-0.043054942
241	0x3ce1f90b	0.027584573
242	0x3cf328bb	0.029682508
243	0x3c4b6406	0.012413984
244	0x3d201469	0.039081965
245	0x3d0487bf	0.03235602
246	0x3d525d88	0.05135873
247	0x3c666752	0.014062719
248	0xbd057b97	-0.032588568
249	0xbd3f8605	-0.04675867
250	0xbd06900a	-0.03285221
251	0xbcbca826	-0.023029398
252	0xbd821427	-0.063515
253	0xbd06c0cc	-0.03289871
254	0xbde8936e	-0.11356245
255	0xbd1994fa	-0.03749559

res1.1.0.bias f4 [64]
0	0xb602ae57	-1.9472989e-06
1	0x35c79b61	1.4871877e-06
2	0x34bb6338	3.4903655e-07
3	0x34e78081	4.3120602e-07
4	0x35711f38	8.9824925e-07
5	0xb4144a42	-1.3810589e-07
6	0x34fe26f5	4.7339532e-07
7	0xb5fa28e4	-1.8638352e-06
8	0x35308bdd	6.5768637e-07
9	0xb50b5f80	-5.1920506e-07
10	0xb680f0cf	-3.842731e-06
11	0x3545d23d	7.3694156e-07
12	0x33e5cc85	1.07008454e-07
13	0x36266d14	2.479942e-06
14	0xb6434a97	-2.9100681e-06
15	0xb6068af3	-2.0048435e-06
16	0x36070037	2.0116693e-06
17	0xb4a307ae	-3.0366704e-07
18	0x35700943	8.9420445e-07
19	0x3606e9d5	2.0103664e-06
20	0x36135b21	2.195775e-06
21	0xb5b583c4	-1.35239e-06
22	0xb4907abe	-2.6911397e-07
23	0x3589324d	1.0221935e-06
24	0x36306383	2.6283967e-06
25	0xb5814f33	-9.634299e-07
26	0xb6821884	-3.877156e-06
27	0xb47dc071	-2.3632471e-07
28	0xb61e80bd	-2.361877e-06
29	0x36024fcc	1.9417957e-06
30	0x35063acc	5.000445e-07
31	0xb6a74930	-4.985508e-06
32	0x35f66188	1.8356814e-06
33	0x35d73a35	1.6035689e-06
34	0x3591e743	1.0870648e-06
35	0xb5a6a08f	-1.2414692e-06
36	0xb49c535b	-2.9117913e-07
37	0xb5a892dc	-1.2559717e-06
38	0x3471d4e8	2.2522329e-07
39	0xb3d09239	-9.7123525e-08
40	0xb58b4e70	-1.0379135e-06
41	0xb44ea421	-1.9244955e-07
42	0xb5b72b42	-1.3647152e-06
43	0xb4f07c6f	-4.479402e-07
44	0xb4a15418	-3.0049773e-07
45	0xb5b48b13	-1.3451521e-06
46	0x3553c4bc	7.888991e-07
47	0x35322976	6.63705e-07
48	0xb69efdd8	-4.7383182e-06
49	0xb65b527f	-3.2681562e-06
50	0x359467b0	1.1057036e-06
51	0xb53acbef	-6.958716e-07
52	0x3602f5fc	1.9514691e-06
53	0x35ff56c5	1.9024234e-06
54	0x35bae1b7	1.3923772e-06
55	0x3625d983	2.4713524e-06
56	0xb40b5155	-1.2974972e-07
57	0xb5621143	-8.421668e-07
58	0xb58ff417	-1.072537e-06
59	0xb5184159	-5.6719506e-07
60	0xb4d4325c	-3.9524718e-07
61	0x36bc1a01	5.605864e-06
62	0x35838788	9.799705e-07
63	0x351bad3f	5.7994106e-07
